Chat_Bot/data.pth (torch, 5325 bytes, 6 tensors)

l1.weight f4 [8, 54]
0	0x3ed5243e	0.41629213
1	0x3eb17cab	0.34665427
2	0x3e742eea	0.23846021
3	0xbe2a3e87	-0.16625415
4	0xbef06d63	-0.46958455
5	0xbebd71e8	-0.37000966
6	0xbe2f14bb	-0.17097752
7	0x3d8486a6	0.06470995
8	0xbdc856de	-0.097821936
9	0x3df98661	0.12183834
10	0xbd8ffe07	-0.07030874
11	0x3eb6a606	0.3567354
12	0x3e5f1d93	0.21788625
13	0x3f16963c	0.5882299
14	0x3efb5082	0.4908486
15	0x3e87defa	0.26537305
16	0xbe03914d	-0.12848397
17	0xbebd777d	-0.37005225
18	0xbd972c33	-0.07381477
19	0xbe6385a9	-0.22218956
20	0x3e271770	0.16317534
21	0xbeadb973	-0.3393055
22	0xbe1cea04	-0.15323645
23	0x3e4ecada	0.20194569
24	0x3dc65815	0.09684769
25	0xbe0acc05	-0.1355439
26	0xbe754bd7	-0.23954712
27	0x3eded6f7	0.4352338
28	0x3e0a9a34	0.13535386
29	0x3eb7ae9e	0.3587541
30	0xbe98c6fb	-0.2983931
31	0x3ee06a86	0.4383127
32	0x3e7aa5b7	0.24477278
33	0x3e638baf	0.22221254
34	0x3eeace2c	0.45860422
35	0x3e6bd204	0.23029333
36	0x3dd3a94d	0.10335026
37	0xbd86878c	-0.06568822
38	0xbdafd8ad	-0.085862495
39	0xbe2b2661	-0.16713859
40	0xbe9ba475	-0.30398908
41	0xbe7a9e73	-0.24474506
42	0x3edecd63	0.43516073
43	0x3ed57219	0.41688612
44	0x3ee6fab3	0.45113143
45	0x3ea4f55e	0.3221845
46	0x3f43ee88	0.76535845
47	0x3e7967b8	0.24355972
48	0xbd8b98b3	-0.068162344
49	0xbe85a972	-0.2610584
50	0x3e2aac06	0.16667184
51	0xbe515391	-0.20442034
52	0xbd2f6c51	-0.042827908
53	0x3e6dfed9	0.23241748
54	0xbe1d79ff	-0.15378569
55	0xbdffd75f	-0.12492251
56	0x3ee1dc39	0.4411333
57	0x3eaf6853	0.3425928
58	0x3d0dd6d8	0.03462872
59	0xbc8f6aa3	-0.017506903
60	0xbe880fa4	-0.26574433
61	0x3ec9b88a	0.39398605
62	0xbebd5570	-0.36979246
63	0x3ea4dcb5	0.32199636
64	0x3eec321f	0.4613199
65	0xbd955c57	-0.07293003
66	0x3e991398	0.2989776
67	0x3ac0542d	0.0014673524
68	0xbdc79c16	-0.09746568
69	0x3dc289b0	0.09498918
70	0x3efd9a53	0.49531803
71	0x3dc8506f	0.097809665
72	0x3e9a1c6e	0.30099815
73	0x3f08e8bd	0.5348013
74	0xbe8fac53	-0.2806116
75	0x3ef00daa	0.46885425
76	0x3f217acc	0.63078
77	0x3eb5c048	0.3549826
78	0x3c5702f2	0.013123261
79	0x3eaa1bd0	0.33224344
80	0x3ef16803	0.47149667
81	0xbed2bf1e	-0.41161436
82	0x3e575d09	0.21031584
83	0xbe8d9d5f	-0.27659127
84	0x3db72a1b	0.08943578
85	0xbd58c1eb	-0.05291931
86	0x3d429fb2	0.04751558
87	0x3ee75840	0.45184517
88	0xbe2d7618	-0.1693958
89	0xbc663574	-0.01405083
90	0x3e075362	0.13215402
91	0xbedadee6	-0.42748183
92	0xbe3c9ecd	-0.18419953
93	0xbda94e22	-0.08266856
94	0x3e0cd796	0.13754115
95	0x3ec037b5	0.375425
96	0xbe3979d1	-0.18112876
97	0xbe4b4a09	-0.19852461
98	0x3e8d7d5e	0.2763471
99	0xbdb7dd65	-0.089777745
100	0xbf360642	-0.711033
101	0xbe8f3bca	-0.27975303
102	0x3ec875af	0.39152285
103	0x3edc3947	0.4301245
104	0x3d933ead	0.07189689
105	0x3ea55fa3	0.32299528
106	0xbe478be3	-0.19486956
107	0x3dc39d13	0.09551444
108	0xbdd40996	-0.10353391
109	0xbe99bc4e	-0.30026478
110	0x3f1f7c3e	0.62298954
111	0x3e5d21e9	0.21594967
112	0xbd1f202b	-0.038849037
113	0xbec316a9	-0.38103226
114	0x3ead9a46	0.33906764
115	0x3ecbb523	0.39786634
116	0x3f2f9eb4	0.68601537
117	0x3ef61dd3	0.4806963
118	0x3ec1e90a	0.37873107
119	0x3ebc7beb	0.36813292
120	0x3ef90eac	0.48644006
121	0x3e9c686f	0.30548427
122	0xbd309681	-0.04311228
123	0x3ec52e50	0.38511896
124	0x3ee00ed5	0.43761316
125	0xbec321eb	-0.38111815
126	0xbe51544e	-0.20442316
127	0x3ec6e1d9	0.38844183
128	0xbdb6fd36	-0.08935015
129	0x3f1a53d8	0.60284185
130	0x3ed53443	0.41641435
131	0x3dcffc73	0.10155573
132	0x3ec918a6	0.39276618
133	0x3ec5ce8e	0.3863415
134	0xbe5b0ca3	-0.2139154
135	0xbe897225	-0.26844898
136	0xbdf99a7d	-0.121876694
137	0xbe7f48a1	-0.2493005
138	0xbe5389cd	-0.20658036
139	0x3ef49305	0.47768417
140	0xbdccd2d4	-0.1000115
141	0x3f3b2b53	0.7311298
142	0xbe0158fd	-0.12631603
143	0x3eaf16a6	0.34196967
144	0xbdd5cbe5	-0.104392804
145	0x3f15b528	0.5847955
146	0x3de22ed1	0.11044086
147	0x3ea5a4b8	0.32352233
148	0xbea2a98c	-0.3176998
149	0xbe61300b	-0.21990983
150	0x3e80385f	0.25043008
151	0xbe072cfd	-0.13200755
152	0x3f2e807e	0.68164814
153	0xbdee2513	-0.11628165
154	0xbecfd4e2	-0.40592104
155	0xbdf07fea	-0.11743148
156	0x3e8b551c	0.2721337
157	0xbe944320	-0.28957462
158	0x3ecbc06d	0.39795247
159	0xbe20d07b	-0.15704529
160	0x3dfb5349	0.12271745
161	0x3e11f57b	0.142538
162	0x3ec99860	0.39374065
163	0x3e4f49eb	0.20243041
164	0x3e1f7ee0	0.15575743
165	0x3e79c3df	0.24391125
166	0xbee2c864	-0.4429351
167	0xbeb021ce	-0.3440079
168	0x3dbbf026	0.09176664
169	0x3e127e9c	0.1430611
170	0xbda6478f	-0.081191175
171	0xbcc4d0a3	-0.024025267
172	0xbcf9423a	-0.030427087
173	0x3f21754a	0.63069594
174	0x3e9cdb0f	0.30635878
175	0x3ef5629c	0.47926795
176	0xbe1cf867	-0.15329133
177	0x3eb370cb	0.35046992
178	0x3d5d2ccc	0.0539978
179	0xbeb06c7f	-0.34457776
180	0xbe8b4f56	-0.27208966
181	0x3db8149e	0.089883074
182	0x3edd6dcd	0.43247834
183	0xbc9be369	-0.019029336
184	0x3e1a281e	0.15054366
185	0x3eddec77	0.4334447
186	0x3ecb83c7	0.39748976
187	0x3d8cab55	0.068686165
188	0xbdefca4c	-0.11708507
189	0xbda116d9	-0.07865686
190	0xbdd22a9c	-0.10262033
191	0xbdac8598	-0.084239185
192	0xbe2b3ab5	-0.16721614
193	0x3f1455d2	0.5794345
194	0x3e170e0e	0.14751455
195	0x3ea8418b	0.32862505
196	0xbdde7693	-0.1086246
197	0x3edb8ea8	0.42882276
198	0x3df48f1d	0.11941359
199	0xbc4b94e9	-0.01242564
200	0x3df31455	0.118691124
201	0x3e024148	0.12720215
202	0xbe48e286	-0.19617662
203	0xbed81848	-0.42206025
204	0x3eaf87e2	0.34283358
205	0x3d96eabe	0.07368992
206	0x3ec984be	0.39359087
207	0xbdb046ba	-0.0860724
208	0x3f60d165	0.8781951
209	0x3eea707d	0.45788947
210	0x3d5463c1	0.051852945
211	0xbe7d9647	-0.24764358
212	0x3efed72e	0.49773544
213	0xbe8fa975	-0.28058973
214	0x3da75193	0.08169856
215	0x3c9ea281	0.019364597
216	0xbe509522	-0.2036939
217	0x3edf8144	0.4365331
218	0xbd73f1a4	-0.05955662
219	0xbec027f9	-0.37530497
220	0x3aa184d1	0.0012322908
221	0x3f552e56	0.8327383
222	0xbc532d46	-0.012889212
223	0xbcba9f76	-0.022781115
224	0xbebf56eb	-0.37371
225	0x3e1b3141	0.15155508
226	0xbeb88669	-0.36040047
227	0xbe8d78df	-0.2763128
228	0x3f4d93a0	0.8030338
229	0xbd8d44c2	-0.0689788
230	0x3eb70dce	0.3575272
231	0xbe231bfd	-0.15928645
232	0xbe8b94ed	-0.2726206
233	0x3f38b1c6	0.7214626
234	0x3ec61919	0.38691023
235	0xbf222e48	-0.6335187
236	0xbd8b46f5	-0.06800643
237	0xbf22215c	-0.6333215
238	0xbf2213c4	-0.6331141
239	0xbf0a4e55	-0.54025775
240	0xbea0dc75	-0.31418195
241	0xbef60234	-0.48048556
242	0x3f2da986	0.678368
243	0x3f128a0a	0.5724188
244	0x3ebfc49a	0.37454683
245	0x3eb9a1d9	0.36256292
246	0x3ef9eaa3	0.48811826
247	0xbda5d50c	-0.08097276
248	0xbbe98190	-0.0071260408
249	0x3d81abce	0.06331597
250	0x3f0ef2f9	0.55839497
251	0xbe4e05e3	-0.20119433
252	0x3f0fc431	0.5615874
253	0xbf027423	-0.5095846
254	0x3d856860	0.065140486
255	0xbe4ef6b9	-0.20211305

l1.bias f4 [8]
0	0x3ebd6ae8	0.36995625
1	0x3f36dba6	0.71428907
2	0x3ec304b2	0.3808952
3	0x3eb01ed7	0.3439853
4	0x3f221772	0.63317025
5	0x3f4bc392	0.7959529
6	0x3f7a9847	0.97888607
7	0x3f09638f	0.5366754

l2.weight f4 [8, 8]
0	0xbf0f193d	-0.55897886
1	0x3f50dc5a	0.8158623
2	0xbeb58f86	-0.35461062
3	0xbf078cf1	-0.52949435
4	0xbf117c29	-0.5683008
5	0x3f1b46b9	0.6065479
6	0x3fa15382	1.260361
7	0x3f216aa7	0.63053364
8	0xbf02335c	-0.5085962
9	0xbeeff7ce	-0.46868747
10	0x3e3a735b	0.18208067
11	0x3e1ff744	0.15621668
12	0xbeaae2c1	-0.33376125
13	0x3f2421d4	0.6411412
14	0xbe1c73c1	-0.15278532
15	0xbe92c4b2	-0.28665692
16	0x3f1c9257	0.61160797
17	0x3eefd0e2	0.46839052
18	0x3f789184	0.9709704
19	0x3f15e91f	0.5855884
20	0xbeb4ac40	-0.35287666
21	0x3f893388	1.0718851
22	0xbf4ef661	-0.80844694
23	0xbe457b06	-0.19285211
24	0x3ee36bc2	0.4441815
25	0x3f6e8c4d	0.9318283
26	0x3f34e49e	0.7066134
27	0x3f382c70	0.71942806
28	0xbf8c2ddb	-1.0951494
29	0x3f8423aa	1.0323384
30	0xbe2b45a7	-0.16725789
31	0x3fb3e7c8	1.4055109
32	0x3f2c059b	0.67196053
33	0x3f410ee9	0.75413376
34	0x3eeb3185	0.45936218
35	0xbe226400	-0.1585846
36	0x3f7f5407	0.9973759
37	0xbefc51d9	-0.49281195
38	0xbf452b8b	-0.77019566
39	0x3e96fae5	0.29488292
40	0x3f82fb5b	1.0232958
41	0xbf0f203f	-0.5590858
42	0xbea95124	-0.33069718
43	0x3f2e67d3	0.68127173
44	0x3e946321	0.2898188
45	0xbe927fec	-0.28613222
46	0x3f35878d	0.7090996
47	0x3fa0dffe	1.2568357
48	0xbec8af13	-0.3919607
49	0xbf530d5d	-0.82442266
50	0x3ddec420	0.108772516
51	0xbe0f07a9	-0.13967766
52	0xbf38c6e1	-0.72178465
53	0x3f1dfecc	0.61716914
54	0xbe5b1bd3	-0.21397333
55	0x3de5c9d5	0.11220137
56	0xbf41d3e8	-0.7571397
57	0x3fbafd6a	1.4608586
58	0xbd9514c9	-0.07279355
59	0xbf0e059b	-0.55477303
60	0x3f96153c	1.172523
61	0x3f8e858d	1.1134506
62	0x3f448ef9	0.7678066
63	0xbf17aa52	-0.59244263

l2.bias f4 [8]
0	0x3ea0a086	0.3137247
1	0x3dcac6f6	0.0990123
2	0x3dfd8cf7	0.123804025
3	0x3e3ea159	0.18616237
4	0xbe1b72d0	-0.15180516
5	0x3df72e12	0.12069334
6	0x3e9cf155	0.30652872
7	0x3f1d8ea6	0.6154579

l3.weight f4 [7, 8]
0	0xbf90e059	-1.1318465
1	0xbf478274	-0.7793343
2	0x3ef0e8e5	0.47052684
3	0x3f2246af	0.63389105
4	0xbf42baea	-0.7606646
5	0xbe0f26ed	-0.13979693
6	0xbeebb623	-0.46037397
7	0xbfb9aa73	-1.4505142
8	0xbf4c4337	-0.7979006
9	0xbf1895c7	-0.5960354
10	0xbf3a8491	-0.7285853
11	0xbf988f22	-1.1918681
12	0x3e4e2038	0.20129478
13	0x3f2d552d	0.6770809
14	0xbf07c0ad	-0.53028375
15	0xbe45d917	-0.19321094
16	0x3f24817f	0.64260095
17	0xbf138489	-0.5762411
18	0xbfc6b71d	-1.5524632
19	0xbfabe438	-1.3429022
20	0xbfbe752e	-1.487951
21	0xbed4f77d	-0.4159507
22	0xbed4d51f	-0.41568848
23	0x3f652aec	0.8951862
24	0x3f188e1c	0.5959184
25	0xbf7b37e5	-0.98132163
26	0xbf21c821	-0.63196
27	0x3f2526f5	0.6451257
28	0xbf71cb26	-0.94450605
29	0xbf1fa4bc	-0.6236074
30	0xbf3d3ef4	-0.73924184
31	0xbc405400	-0.011738777
32	0xbfa318f4	-1.274199
33	0xbe045a38	-0.1292504
34	0xbf943c05	-1.1580817
35	0xbf75da39	-0.96036106
36	0x3f3473c2	0.7048913
37	0xbfce1a59	-1.6101791
38	0xbee6d773	-0.4508625
39	0x3f35d34d	0.71025544
40	0xbf709900	-0.9398346
41	0x3f680ac6	0.9064144
42	0x3ed58158	0.41700244
43	0x3e95189c	0.29120338
44	0xbd70d1e4	-0.058793917
45	0xbfbee90b	-1.4914869
46	0x3f71918e	0.94362724
47	0xbe225631	-0.15853192
48	0x3e257096	0.1615623
49	0xbe28386d	-0.16427775
50	0xbfaf9f86	-1.3720558
51	0x3f0f59c6	0.5599636
52	0xbfaf25f3	-1.3683456
53	0x3f5fa3c1	0.87359244
54	0xbd3b7206	-0.045763038
55	0xbfe72d0c	-1.8060622

l3.bias f4 [7]
0	0xbf0c9a27	-0.5492272
1	0x3ea23f37	0.31688854
2	0xbd415713	-0.04720218
3	0xbee095f4	-0.43864405
4	0xbe1b2ba5	-0.15153368
5	0x3d003b08	0.031306297
6	0xbcc8b8dc	-0.02450221
